Assets/MLNavAgent.onnx (onnx, 40405 bytes, 5 tensors)

network_body._body_endoder.seq_layers.0.weight f4 [256, 33]
-0.36785975 0.194327 0.27015772 -0.08404956 0.024941387 -0.039861195 0.09858658 -0.038993996
0.013256597 -0.0036517936 -0.2316067 0.044926062 -0.1712024 0.036782447 0.07655244 0.008491343
0.04757518 -0.021520544 0.030803276 0.07702116 -0.08833422 -0.1536895 0.13724451 -0.2234627
-0.025492154 0.045708522 -0.30360076 -0.00756423 -0.075824946 0.032972895 0.025508044 -0.046319585
-0.0788267 0.10176811 -0.026237449 0.2682285 -0.243942 0.2188416 -0.13067946 0.12588222
0.2671909 0.016622039 0.10091793 -0.12404434 -0.07688299 -0.04039894 0.08173501 0.11967751
-0.32909286 0.09743059 -0.02614682 -0.004188767 -0.16490081 0.10071841 0.25571254 0.17404446
-0.13916987 0.27013063 -0.28524074 0.56084067 -0.03323054 0.043613926 -0.326554 1.0123659e-05
-0.17600651 -0.01299625 0.074584015 0.19561648 -0.11182431 0.13443364 0.1030757 -0.21398339
-0.07155271 -0.09407654 -0.017026687 -0.038056295 -0.05082714 0.40674886 0.03307228 0.06722255
0.17130408 0.09709177 -0.22696681 0.25793162 -0.10250275 -0.22312072 -0.08864395 0.031257067
-0.07612885 0.075078584 0.09691357 -0.17915587 -0.06734792 -0.37582895 0.22190177 -0.27804467
-0.11166415 0.100887954 -0.26314598 0.40282232 -0.08006411 -0.062758915 -0.2347857 -0.2786575
0.1984298 0.06612442 0.21750696 0.43782303 0.10241817 0.050392784 0.058717683 -0.054723945
0.003232312 0.2337834 0.17332852 0.005001464 -0.23603019 0.049825814 -0.08578162 -0.13244894
0.08370969 0.15679698 -0.23960309 -0.30031234 -0.114018105 0.061147276 0.26585656 0.10062494
-0.28830367 0.058783326 -0.3537046 0.3032371 -0.20101538 -0.2808324 -0.0004790914 0.0009188268
-0.18110058 0.13278799 -0.0057649175 -0.06498689 -0.1395439 0.1260126 -0.084892035 0.24128361
0.07935803 0.23541926 -0.438057 -0.23601325 -0.19814602 0.2504518 0.17693773 -0.2311695
0.08513491 0.20988289 -0.07086178 0.07779649 -0.3612893 -0.00033573355 -0.02794936 0.0762532
-0.07875101 -0.35497716 0.023617698 -0.1603806 -0.15891302 0.35907683 -0.1521534 -0.16659606
-0.051047284 -0.4062356 0.06435355 0.11723148 -0.14599487 0.26518023 -0.10016781 0.004669422
0.11715407 0.082069755 0.11659685 0.014463103 -0.2678144 0.117887534 0.019628802 -0.022291945
-0.015317744 -0.18073517 -0.18105052 0.004087578 0.43155724 -0.09180654 0.2876284 -0.19766386
0.0021319725 -0.20793942 0.24488778 0.06682192 0.21027672 -0.32789722 -0.02534491 -0.12044866
-0.091933824 0.15037854 -0.06570479 -0.035211667 0.16063142 0.16044427 -0.23965761 -0.014562701
0.07958574 0.34424895 -0.18605076 0.0618616 0.22863728 0.3434474 0.048466597 -0.4573182
0.025190283 0.23808643 -0.17467499 0.07809037 0.1522859 -0.042023323 0.05316479 0.2411418
0.11538992 -0.2248054 0.3722559 0.16830623 0.011208433 -0.01610862 0.18535538 0.09972837
0.086231105 -0.050244097 0.0134877805 -0.31991342 -0.016506253 0.21355203 -0.016177442 -0.013807259
0.15190664 -0.08136492 -0.07553327 -0.10750692 -0.1443191 0.15248787 0.08727398 -0.10649613
0.0014018896 -0.10707777 0.08235776 0.053524856 -0.256168 0.09913631 -0.019125575 -0.21390304
00000000: 1d58 bcbe a8fd 463e 1d52 8a3e 2d22 acbd
00000010: e151 cc3c 7e45 23bd c3e7 c93d 2bb8 1fbd
00000020: 3332 593c ee52 6fbb 4f2a 6dbe 6404 383d
00000030: af4f 2fbe 31a9 163d 87c7 9c3d 461f 0b3c
00000040: 31de 423d da4b b0bc 2757 fc3c 45bd 9d3d
00000050: 92e8 b4bd c860 1dbe d389 0c3e 68d3 64be
00000060: ecd4 d0bc dc38 3b3d 8f71 9bbe 5cdd f7bb
00000070: 1c4a 9bbd 960e 073d 3ff6 d03c 9bb9 3dbd
00000080: e56f a1bd cd6b d03d ebef d6bc 3f55 893e
00000090: efcb 79be 0318 603e d6d0 05be 45e7 003e
000000a0: 3fcd 883e f12a 883c 0fae ce3d f50a febd
000000b0: d474 9dbd 5c79 25bd af64 a73d 7b19 f53d
000000c0: dc7e a8be b089 c73d db31 d6bc ed41 89bb
000000d0: c2db 28be 7445 ce3d c1ec 823e b638 323e
000000e0: 8c82 0ebe 904e 8a3e 130b 92be 4193 0f3f
000000f0: bf1c 08bd 84a4 323d 1632 a7be c9d8 2937
00000100: 0d3b 34be 39ee 54bc 81bf 983d b04f 483e
00000110: 2504 e5bd f9a8 093e 5a19 d33d 761e 5bbe
00000120: 3a8a 92bd 33ab c0bd 8d7b 8bbc ebe0 1bbd
00000130: 1f30 50bd 6341 d03e cd76 073d faab 893d
00000140: 566a 2f3e 0dd8 c63d fd69 68be 9d0f 843e
00000150: f6ec d1bd c279 64be f68a b5bd 6907 003d
00000160: 71e9 9bbd cdc2 993d 9f7a c63d a374 37be
00000170: b5ed 89bd a76c c0be 383a 633e df5b 8ebe
00000180: 2db0 e4bd 589e ce3d 12bb 86be ba3e ce3e
00000190: a7f8 a3bd bf87 80bd aa6b 70be 32ac 8ebe
000001a0: 2e31 4b3e 3d6c 873d 25ba 5e3e 572a e03e
000001b0: 9ec0 d13d aa68 4e3d f481 703d 3726 60bd
000001c0: 32d5 533b ea64 6f3e 087d 313e 52e3 a33b
000001d0: e6b1 71be 2716 4c3d 46ae afbd b2a0 07be
000001e0: fc6f ab3d 638f 203e 835a 75be 8ac2 99be
000001f0: 5382 e9bd 9175 7a3d 5a1e 883e 7314 ce3d
00000200: 8a9c 93be c9c6 703d c518 b5be e541 9b3e
00000210: fad6 4dbe 44c9 8fbe 8f2e fbb9 6cdd 703a
00000220: 6e72 39be 93f9 073e a2e7 bcbb d917 85bd
00000230: 99e4 0ebe 7209 013e e0db adbd 0d13 773e
00000240: 7686 a23d bf11 713e 0249 e0be 75ad 71be
00000250: cae6 4abe 383b 803e 2a2f 353e b3b7 6cbe
00000260: 365b ae3d 8aeb 563e fb1f 91bd c453 9f3d
00000270: e9fa b8be 6505 b0b9 0ef6 e4bc a32a 9c3d
00000280: 3648 a1bd 91bf b5be e779 c13c d03a 24be
00000290: 18ba 22be ebd8 b73e 1ace 1bbe 2898 2abe
000002a0: f516 51bd 1dfe cfbe cbcb 833d 0f17 f03d
000002b0: ae7f 15be b4c5 873e c824 cdbd f301 993b
000002c0: 79ee ef3d 3014 a83d 54ca ee3d a7f6 6c3c
000002d0: f81e 89be 056f f13d 95cc a03c 999d b6bc
000002e0: 46f7 7abc a412 39be 4f65 39be 17f1 853b
000002f0: 12f5 dc3e 1105 bcbd 0844 933e 6568 4abe
00000300: 90b8 0b3b 12ee 54be ddc3 7a3e eed9 883d
00000310: c852 573e 25e2 a7be 21a0 cfbc c9ad f6bd
00000320: cd47 bcbd d5fc 193e 3c90 86bd 1c3a 10bd
00000330: 907c 243e 814b 243e ce68 75be 6598 6ebc
00000340: d9fd a23d 6641 b03e 1784 3ebe 9762 7d3d
00000350: e41f 6a3e 56d8 af3e e984 463d 9c25 eabe
00000360: da5b ce3c eecc 733e 00de 32be d8ed 9f3d
00000370: d6f0 1b3e a620 2cbd 53c3 593d e0ed 763e
00000380: 8d51 ec3d 6333 66be 5398 be3e 7858 2c3e
00000390: 93a3 373c 3af6 83bc cdcd 3d3e 633e cc3d
000003a0: ef99 b03d c1cc 4dbd dafb 5c3c b1cb a3be
000003b0: 1f38 87bc 62ad 5a3e 8e86 84bc d737 62bc
000003c0: 6a8d 1b3e a7a2 a6bd 30b1 9abd 972c dcbd
000003d0: 63c8 13be c825 1c3e b3bc b23d a51a dabd
000003e0: 9cbf b73a 974b dbbd 2fab a83d e13c 5b3d
000003f0: 7428 83be fa07 cb3d 3dad 9cbc 6609 5bbe

network_body._body_endoder.seq_layers.0.bias f4 [256]
-0.0013419292 0.0063803755 -0.016635949 -0.002640393 -0.014715438 -0.00056249736 -0.012511621 -0.007296628
0.014286231 -0.0018232831 -0.0072631463 1.3206618e-05 -0.00513517 -0.00012305265 0.00054061925 -0.019840369
0.002010783 0.0002429913 -0.0059894533 -0.018306825 0.0023011125 -0.0018050531 -0.007085502 -0.0048231306
-0.007313111 -0.009934433 0.022378923 -0.024781696 -0.018435191 0.0048927646 -0.0044684964 -0.0057636034
-0.0006113279 -0.0011070288 -0.0020652565 0.0029837752 0.034357175 0.0005704962 0.0030785508 -0.013739405
0.003805389 -0.00731241 -0.0017018466 -0.019342637 -0.009354953 0.014741702 0.00014031095 -0.020758148
-0.012371657 -0.013117545 0.013280093 -0.00051230664 -0.0007912955 -0.008687665 -0.0069615324 0.035499576
-0.013137277 0.014118471 -0.0023408302 0.007114413 -0.0013666552 -0.030007582 -0.01572285 -0.00066309806
0.035777576 0.013818572 0.0013949622 -0.0033300356 0.0015152459 0.0027317603 0.028410984 0.00038401777
0.0026142388 -0.008979636 -0.0104638105 -0.006167835 -0.025241127 0.01104189 -0.027620193 -0.0025926488
-0.0075249434 -0.0028045736 0.008937799 0.0015410909 0.014232651 0.0033067875 -0.010554251 -0.0018200129
-0.015340575 0.033129655 -0.003577617 -0.0075793853 -0.016085045 -0.0036419104 -0.024721708 -0.0026422024
-0.0030787813 0.0077781235 -0.008832962 -0.0053584436 0.00237821 0.0022080445 0.010303271 0.0011515332
0.011550087 -0.003682626 0.0019116909 -0.0023459452 -0.0016188769 -0.0013448325 0.00027876085 -0.024429848
0.0087634 -0.0006441113 -0.0037225566 0.019595629 0.009802564 -0.0006147767 0.0054045133 -0.017824315
-0.0013510587 0.007995648 0.0006011565 -0.017842822 -0.005327684 -0.002815503 0.00246781 -0.0019971435
-0.0051486413 -0.0078036888 -0.0037167424 0.014442582 -0.0025207803 -0.010568422 0.00019600312 -0.0011486614
-0.01827251 0.017772127 -0.004316352 0.00037285977 -0.002753869 -0.0014635129 0.0024865663 0.002722566
0.02255213 -0.011955363 -0.00033691258 -0.0013041261 0.0008577469 -0.0009739054 0.0057756845 0.002891
0.0031740996 -0.003179685 0.021596542 0.0029140871 -0.009178344 0.0031519877 -0.0069984836 0.0038221546
-0.005708012 0.0044192076 0.013297921 -0.0024815982 -0.00667621 0.03999587 -0.008449176 -0.008978696
-0.020436902 -0.0028917051 -0.017137857 -0.0020263381 -0.016885102 0.0025123397 0.0083386265 0.004065742
-0.0005237187 -0.008262789 0.0013270824 -0.009669208 0.0058679436 0.0061641685 0.0014982802 -0.019041432
-0.00013761056 0.007862513 -0.0078981295 0.015078994 -0.0012735106 0.008130608 -0.0028832916 -0.0016594467
-0.0038909318 -0.008680335 -0.0073890393 -0.01993296 0.007210877 -0.009520271 -0.003782005 -0.0020059492
-0.0022668994 -0.019843955 -0.01915634 0.0057998924 -0.0023101808 -0.013949585 -0.007219531 -0.011095145
-0.003367137 -0.002352616 -0.0029221564 1.0503112e-05 0.0022581462 -0.017263357 -0.008370874 -0.0008915732
-0.015326892 0.0028628865 -0.004654263 0.0068961326 -0.011972387 -0.017787376 -0.021764247 -0.015021026
0.045863044 0.01788796 0.0018560464 -0.008431553 0.003164678 -0.02488463 0.023209356 0.019424155
-0.004735788 0.0027805828 -0.0028693865 -0.010117658 -0.0029320463 -0.0028962246 -0.01111399 -0.011909091
-0.00034131305 0.0009250574 0.008019042 -0.011442899 -0.006154421 0.0025341024 -0.007449192 -0.007276943
0.0055297976 -0.006052188 0.0029141686 -0.008164664 -0.015025948 -0.012627073 -0.009364502 -0.002658589
00000000: ace3 afba 7812 d13b 1d48 88bc 720a 2dbb
00000010: 0519 71bc 8f74 13ba 8bfd 4cbc 8d18 efbb
00000020: cc10 6a3c 3bfb eeba b0ff edbb fe91 5d37
00000030: ee44 a8bb b207 01b9 58b8 0d3a 4588 a2bc
00000040: 57c7 033b 7bcb 7e39 2d43 c4bb 32f8 95bc
00000050: 43ce 163b 8897 ecba 802d e8bb 5a0b 9ebb
00000060: d2a2 efbb 08c4 22bc 0154 b73c fc02 cbbc
00000070: 6605 97bc 7c53 a03b 776c 92bb 9cdc bcbb
00000080: 8541 20ba b919 91ba 4159 07bb 718b 433b
00000090: 1cba 0c3d 5a8d 153a 83c1 493b 3e1b 61bc
000000a0: d563 793b f19c efbb 7f10 dfba 7374 9ebc
000000b0: 8445 19bc 2e87 713c 6f20 1339 fe0c aabc
000000c0: 7eb2 4abc f9ea 56bc bf94 593c 514c 06ba
000000d0: f16e 4fba b556 0ebc 911d e4bb 0168 113d
000000e0: bc3d 57bc 2951 673c 9d68 19bb 0620 e93b
000000f0: 5721 b3ba 76d2 f5bc 35cd 80bc c2d3 2dba
00000100: 828b 123d 4b67 623c 2ad7 b63a ba3c 5abb
00000110: 379b c63a 5507 333b 27be e83c fe55 c939
00000120: a653 2b3b 531f 13bc 6770 2bbc 8d1b cabb
00000130: 7bc6 cebc 0be9 343c be43 e2bc 6ee9 29bb
00000140: cd93 f6bb f0cc 37bb d96f 123c 6efe c93a
00000150: 1130 693c b0b6 583b bdeb 2cbc 808d eeba
00000160: 0957 7bbc f6b2 073d 7476 6abb 7e5c f8bb
00000170: c9c4 83bc 1ead 6ebb 2e85 cabc cd28 2dbb
00000180: 61c5 49bb a1df fe3b 21b8 10bc e295 afbb
00000190: bedb 1b3b d7b4 103b 0dcf 283c 0bef 963a
000001a0: 933c 3d3c 3658 71bb b491 fa3a 6ebe 19bb
000001b0: 7f30 d4ba 1745 b0ba a626 9239 1b21 c8bc
000001c0: 5d94 0f3c 94d9 28ba 23f6 73bb 0387 a03c
000001d0: ef9a 203c f728 21ba 5818 b13b 4c04 92bc
000001e0: 0216 b1ba 2e00 033c ee96 1d3a 1c2b 92bc
000001f0: da93 aebb 4d84 38bb fbba 213b 82e2 02bb
00000200: efb5 a8bb 16b6 ffbb 9794 73bb 94a0 6c3c
00000210: ad33 25bb 2d27 2dbc 3086 4d39 ae8e 96ba
00000220: 3bb0 95bc da96 913c 2f70 8dbb 647c c339
00000230: 417a 34bb 58d3 bfba a9f5 223b 146d 323b
00000240: 3fbf b83c 6de0 43bc a4a3 b0b9 36ef aaba
00000250: 6cda 603a af4d 7fba f441 bd3b ee76 3d3b
00000260: 8e04 503b 4362 50bb 3beb b03c 45fa 3e3b
00000270: c460 16bc 9491 4e3b 8953 e5bb 1d7d 7a3b
00000280: 460a bbbb 00cf 903b 86df 593c 4fa2 22bb
00000290: 1cc4 dabb b6d2 233d 6a6e 0abc 611b 13bc
000002a0: 4a6b a7bc c382 3dbb b164 8cbc 50cc 04bb
000002b0: a052 8abc 11a6 243b bc9e 083c ea39 853b
000002c0: 2b4a 09ba a660 07bc 7ff1 ad3a 996b 1ebc
000002d0: e147 c03b cbfc c93b f161 c43a c7fc 9bbc
000002e0: 8e4b 10b9 c5d1 003c 2867 01bc e30d 773c
000002f0: edeb a6ba 3e36 053c 9bf5 3cbb cb81 d9ba
00000300: 01ff 7ebb f737 0ebc c11f f2bb 724a a3bc
00000310: 3849 ec3b e9fa 1bbc 84db 77bb 3e76 03bb
00000320: 4390 14bb ca8f a2bc c2ed 9cbc 060d be3b
00000330: 6766 17bb cd8c 64bc d191 ecbb 69c8 35bc
00000340: 2fab 5cbb 592e 1abb a681 3fbb 8636 3037
00000350: 68fd 133b e26b 8dbc fe25 09bc 77b8 69ba
00000360: a51d 7bbc 449f 3b3b ca82 98bb f4f8 e13b
00000370: d527 44bc d5b6 91bc ef4a b2bc c01a 76bc
00000380: e3da 3b3d c589 923c 9546 f33a 7f24 0abc
00000390: 7d66 4f3b dada cbbc 8c21 be3c 681f 9f3c
000003a0: ab2e 9bbb 703a 363b 510c 3cbb 89c4 25bc
000003b0: 9327 40bb 96ce 3dbb 7417 36bc 591e 43bc
000003c0: 43f2 b2b9 8d7f 723a 4d62 033c ff7a 3bbc
000003d0: 06ab c9bb 2f13 263b 5a18 f4bb 6c73 eebb
000003e0: 4e33 b53b 6f51 c6bb a3fb 3e3b 15c5 05bc
000003f0: 652f 76bc c8e1 4ebc 916d 19bc b93b 2ebb

action_model._continuous_distribution.log_sigma f4 [1, 2]
0.01221223 -0.051404484
00000000: ce15 483c 828d 52bd

action_model._continuous_distribution.mu.weight f4 [2, 256]
0.038766462 -0.0023503986 0.0020569426 0.0006753661 -0.0062074033 0.00030467703 -0.0037211434 0.007653481
-0.017482363 -0.0066774 -0.01609172 -0.009006987 -0.024701959 0.0060919207 0.007890392 0.0049416358
0.013428797 0.00527025 -0.026700314 0.0062702596 -0.006760672 -0.014517461 -0.012168928 -0.017246751
-0.00027975912 -0.0051501165 0.014688371 -0.0016229843 -0.005880688 0.0018414118 -0.0064942962 -0.02266574
0.0013065098 -0.013997948 -0.007925993 0.008667666 -0.023358421 0.019988842 -0.01853327 -0.0096992105
0.012669743 -0.02391066 -0.029612496 -0.00038000444 0.0018706991 -0.007834776 0.017337816 -0.009853112
-0.012533508 -0.0036025124 0.0008236232 0.010363123 0.010848142 0.0008647331 -0.003918537 0.036017746
-4.8603706e-05 -0.0070627076 -0.019699035 0.020421512 0.0066684093 0.009854909 0.0014485272 0.02475375
0.015999343 -0.040811572 -0.033342242 -0.013011727 0.0053825993 0.01085357 -0.012376503 0.011420479
-0.0077386834 -0.004419712 -0.004913462 0.0061040577 -0.0065592164 -0.0013898027 -0.007055734 0.011779039
0.013111041 -0.021328228 -0.0045935763 0.02499111 -0.04691045 -0.010583657 -0.00043482796 0.002354965
0.003800518 -0.060348134 -0.0041062166 0.011264053 -0.003546465 0.0109694125 -0.0057971473 -0.008887993
0.020104995 -0.008159285 -0.00057486503 -0.03688522 0.00030563638 0.029363612 0.013989969 0.0032788937
0.021562742 -0.02948928 -0.011308263 -0.0136337355 -0.009948243 0.0012277395 0.0045588054 -0.006769243
-0.038660605 -0.026943797 -0.0073544127 -0.0057184463 0.0021824215 0.027565207 0.014438244 -0.019044105
-0.012359291 0.0084065 0.0030354117 0.006955414 -0.0027137687 -0.030745184 0.010101293 0.0048040566
-0.016526356 -0.011240323 -0.015224839 -0.0006765417 -0.024558725 -0.0030434881 0.032257102 0.015665442
0.002016104 -0.0060034785 0.01078453 -0.011653574 -0.015325478 0.010776166 -0.011830245 0.009425731
0.002814496 -0.008312212 -0.005008056 0.012588781 -0.009029265 0.0014364516 -0.0023944236 -0.0011245316
-0.009896218 -0.021521602 -0.0010290194 0.016936155 -0.0029791342 -0.009346885 -0.004306898 0.020742241
-0.00672194 0.009696625 0.0013114731 -0.021432342 0.008681415 0.014077775 -0.009690775 -0.009224023
0.019626092 0.022493837 -0.0016255412 0.0017725958 0.002509639 0.0014462615 0.006737498 -0.015946705
-0.005998703 -0.0094516 0.0050226282 0.005140258 -0.016250663 0.011218961 0.013113026 -9.977293e-05
-0.012009398 0.0034735347 -0.0072299526 0.017366575 -0.0058316267 0.01650344 0.007537705 0.013507236
-0.016356006 0.022571007 0.001982182 -0.01090893 0.0020510445 -0.011501896 -0.024928415 -0.01786934
-0.031033505 -0.00098914 -0.0015024584 -0.0346354 0.0057542953 -0.0032574742 -0.014448397 -0.0029883285
0.00215816 -0.013882052 -0.018015962 -0.008860944 0.003329187 0.019866021 -0.010853832 0.024619475
0.011860677 -0.0025546055 0.0011022147 0.014068433 -0.0045559574 0.005240336 -0.008201136 -0.01425502
0.028707273 -0.032850597 0.009724297 -0.009965455 -0.0044685355 -0.008278484 -0.021735175 -0.028239617
-0.018586457 0.0054227966 -0.012979152 0.00460995 0.005687374 0.014849884 -0.006494589 0.02089065
-0.008874341 0.0026482022 0.011884747 0.0025755586 0.004570798 0.0122320065 -0.007655306 0.0029656475
0.0059167356 -0.004341742 -0.03108325 -0.01968289 0.0029790867 -0.011010985 0.007484817 0.008236385
00000000: 95c9 1e3d 2509 1abb c5cd 063b 0d0b 313a
00000010: 7967 cbbb 0fbd 9f39 6dde 73bb 0dca fa3b
00000020: 2c37 8fbc 17ce dabb c8d2 83bc 0b92 13bc
00000030: c35b cabc bc9e c73b b446 013c 72ed a13b
00000040: 7504 5c3c 10b2 ac3b 9eba dabc c076 cd3b
00000050: a188 ddbb a5da 6dbc 2f60 47bc 0f49 8dbc
00000060: a2ac 92b9 4fc2 a8bb 7ea7 703c 51ba d4ba
00000070: c9b2 c0bb 875b f13a 1bce d4bb 81ad b9bc
00000080: 323f ab3a a657 65bc 06dc 01bc d402 0e3c
00000090: 295a bfbc a4bf a33c 16d3 97bc 70e9 1ebc
000000a0: c194 4f3c 4ae0 c3bc e895 f2bc 553b c7b9
000000b0: 3f32 f53a 6f5d 00bc 0908 8e3c f26e 21bc
000000c0: 5859 4dbc 2118 6cbb 6be8 573a 17ca 293c
000000d0: 68bc 313c 42af 623a 1267 80bb 5887 133d
000000e0: d5db 4bb8 496e e7bb df5f a1bc 044b a73c
000000f0: ac82 da3b 7c76 213c 82dc bd3a 60c8 ca3c
00000100: 0e11 833c 092a 27bd e091 08bd 232f 55bc
00000110: 8460 b03b 2cd3 313c d1c6 4abc f61c 3b3c
00000120: c894 fdbb 3bd3 90bb 1b01 a1bb 8c04 c83b
00000130: b2ee d6bb 0a2a b6ba c933 e7bb dffc 403c
00000140: b1cf 563c 89b8 aebc b685 96bb 28ba cc3c
00000150: 2c25 40bd 1367 2dbc 9ff9 e3b9 c255 1a3b
00000160: 1d12 793b 9b2f 77bd 718d 86bb dd8c 383c
00000170: cf6b 68bb 0db9 333c fff5 bdbb f29e 11bc
00000180: 3bb3 a43c 86ae 05bc 8ab2 16ba f514 17bd
00000190: d23d a039 f58b f03c 2f36 653c b5e2 563b
000001a0: 59a4 b03c 8193 f1bc 4b46 39bc 0860 5fbc
000001b0: f5fd 22bc 1aec a03a 0862 953b 87d0 ddbb
000001c0: 955a 1ebd 3db9 dcbc 49fd f0bb ce61 bbbb
000001d0: f506 0f3b 6ed0 e13c 628e 6c3c 6202 9cbc
000001e0: a07e 4abc 6bbb 093c c2ed 463b 3eea e33b
000001f0: 7cd9 31bb 53dd fbbc e57f 253c 596b 9d3b
00000200: 4862 87bc 5529 38bc 9a71 79bc f259 31ba
00000210: 612f c9bc 4275 47bb 0620 043d d054 803c
00000220: 9d20 043b d4b8 c4bb 99b1 303c a2ee 3ebc
00000230: b717 7bbc 848e 303c a5d3 41bc 626e 1a3c
00000240: 6873 383b f22f 08bc 9e1a a4bb 2d41 4e3c
00000250: 7bef 13bc 5147 bc3a c3eb 1cbb 0565 93ba
00000260: bf23 22bc 124e b0bc 29e0 86ba b1bd 8a3c
00000270: 943d 43bb ad23 19bc e120 8dbb a2eb a93c
00000280: b843 dcbb 98de 1e3c bce5 ab3a e192 afbc
00000290: 7e3c 0e3c 78a6 663c 0ec6 1ebc 5b20 17bc
000002a0: e6c6 a03c ff44 b83c 1d10 d5ba 7256 e83a
000002b0: c178 243b 7c90 bd3a 3bc6 dc3b aaa2 82bc
000002c0: c590 c4bb e2da 1abc dc94 a43b 9c6f a83b
000002d0: 1c20 85bc bccf 373c 04d8 563c 2f3d d1b8
000002e0: 11c3 44bc 3ea4 633b 3de9 ecbb 5944 8e3c
000002f0: 3b17 bfbb 3932 873c dafe f63b 744d 5d3c
00000300: 08fd 85bc d5e6 b83c 7fe7 013b 5ebb 32bc
00000310: d16a 063b 7372 3cbc ad36 ccbc b962 92bc
00000320: fa39 febc 08a6 81ba 23ee c4ba d9dd 0dbd
00000330: 878e bc3b 597b 55bb f8b8 6cbc d5d7 43bb
00000340: eb6f 0d3b 8c71 63bc 3696 93bc 7e2d 11bc
00000350: 7d2e 5a3b 11be a23c 45d4 31bc c8ae c93c
00000360: 4953 423c 2b6b 27bb 3078 903a 497f 663c
00000370: 244a 95bb 20b7 ab3b 0f5e 06bc e38d 69bc
00000380: 842b eb3c 598e 06bd a852 1f3c 2646 23bc
00000390: cb6c 92bb 7ba2 07bc f70d b2bc c556 e7bc
000003a0: a042 98bc b7b1 b13b 82a6 54bc 100f 973b
000003b0: 275d ba3b ee4c 733c 90d0 d4bb de22 ab3c
000003c0: af65 11bc 768d 2d3b 3eb8 423c b4ca 283b
000003d0: a2c6 953b c168 483c 5cd9 fabb 4f5b 423b
000003e0: 2de1 c13b 2c45 8ebb 4da2 febc 033e a1bc
000003f0: c83c 433b 6b67 34bc 3243 f53b e7f1 063c

action_model._continuous_distribution.mu.bias f4 [2]
0.002634358 0.0034280121
00000000: 31a5 2c3b 80a8 603b
